models/policy.pt (torch, 78613 bytes, 8 tensors)

weight f4 [128, 48]
00000000: 5782 b43e 0896 9ebd 2f26 5c3e 072e 333c
00000010: d13b b03d 16dc 423f 23b8 953f 4061 99be
00000020: 97c5 6d3e bcff 67be eb80 393f b42b 2a3f
00000030: 293b d13e 940a e4bd 0993 08bf 4e5c 1cbf
00000040: 1da3 16be df5f eb3d 51ad 88be 5b7b 463e
00000050: d522 753f 1ba6 98be b947 a23e 7e8d 293e
00000060: 0ba5 94be f901 6e3e 6b47 c8bd afc2 843f
00000070: 348a 933d 1c5c 323f d59d 0a3d 99d4 963e
00000080: 5683 d03e 30dc b4bd 4c1d 0cbd 1501 44be
00000090: 32fa 5ebd 70d8 983e a39f d0bd 4eaf 4dbc
000000a0: 2e69 e7bd 25f9 36be cf21 5f3d 1a85 183e
000000b0: b598 7b3d a460 4f3e 71e9 e0bd 8355 4cbc
000000c0: 9971 6d3e 6266 563e b357 05be 7321 17bf
000000d0: 92fb 603f 6a14 5bbf 718b 8f3f e864 2d40
000000e0: 462d a63e 37c1 7d3e abf0 b8be 7769 adbf
000000f0: ba63 08bf ab68 283c 7d61 3c3e f124 a8bd
00000100: 1a19 26be 9c48 783d ce3a 40bf f8ce 213f
00000110: 8262 fa3e cae6 943e 6eb4 1d3e 4368 cfbc
00000120: 7842 aabe 0437 c4bc 568b 4bbe 1726 b9be
00000130: fef3 fe3e 0837 fd3e 843c bbbd 585f 4bbe
00000140: 15d5 ee3d a237 f5be 2815 ebbd df4d 1f3e
00000150: 2d59 9fbe 5369 143d 9b7a f43d 26dd aebe
00000160: 4e29 4e3e c834 bcbe 0698 aa3b de61 1fbe
00000170: 2581 b73e aac3 24bf cf01 48be 64ee a0be
00000180: c8ee c1be 8f79 53bf 9198 913c b929 2d3f
00000190: cb42 4ebf 6f85 bc3e dce9 64bf 61aa 38c0
000001a0: 3862 673e 3bac bdbd 0a55 ea3e 6cee efbe
000001b0: d49d 5f3f 5deb 2abe 8759 74be e439 093f
000001c0: 8e3b 1dbe 6f97 cbbe d4cd 9f3c 1914 5abe
000001d0: 054f 973d e1f4 143f 263e c3be bbdb 95be
000001e0: 0c87 393f 971a 9fbe 0cc7 38be 7e32 2d3e
000001f0: b1e0 9bbe 1b2f a6be c8d9 40bd b178 4cbe
00000200: c64a c6bd 7eff 3f3f 0e37 98be 4a80 97be
00000210: e0f9 0f3f dfa5 8dbd 84d3 d53d f9d4 54bf
00000220: 2500 333f 8f98 0a3d 48dd 563d 9684 52be
00000230: 1f50 94be 5e21 c33e 0653 81bd 29d5 e8bc
00000240: f672 96be 2e5e 92bd 0d94 3d3d cbba 2a3e
00000250: a52e 66be 5063 e6be a670 a2bf edc0 3fbf
00000260: 6217 7e3d db2e 713d e75e 54bd 00da 373f
00000270: 519f 133f 93be 2cbf 5ea4 18bf 87da 55bd
00000280: 53b8 ccbe 89b9 17be 8396 b93d 7858 07be
00000290: cd89 783e 5a11 3d3e 0fa0 6ebe a04b b83d
000002a0: 477d 6a3e 6cbd e53d 369b 86be 75d8 623e
000002b0: a212 11bf ac37 123e 30d7 debc e994 64bd
000002c0: ee94 af3e 66af 093d 5649 72be 1e45 36be
000002d0: 11d9 8a3e 7385 f03d bb16 7bbe e2ee e03e
000002e0: 4362 a83e e88b 29be a99e de3d c283 bb3e
000002f0: d1bc b3be 5be7 003e c54d d1be b610 f5bd
00000300: b933 1b3e 439e 0b3d 1552 51bc a62a 5f3b
00000310: dd59 83be 050e 213f c6c2 9d3d fb24 023f
00000320: fd8b 0c3d 6f33 84bb 780f 54bd e6ed 67bf
00000330: 40ba acbe de61 42be b609 c8be d73d bbbe
00000340: efa6 2e3f 72a6 d8be 4a7c 0abe c29c 2fbe
00000350: 908b 983e 8a73 213f 7763 e6be 23e8 bf3e
00000360: f82c 133e 70f6 86be 0bb3 7e3e 389f 0f3f
00000370: f9e3 753e cd17 81be 9b47 f53e aed6 3f3d
00000380: 913c e23d 6b39 8e3e 096c be3c 4168 dd3d
00000390: 6f7d 6bbe fba8 d7bd 86b4 3a3e c608 1dbe
000003a0: de5f 85bd d0a1 0e3e b3b3 87bd 3240 36be
000003b0: 040a 66bd a042 dabd 7478 613e ad02 203d
000003c0: ccb8 0bbd 8233 48bd 220f 45bd 0e6b 463e
000003d0: c513 79be 3b97 9e3e 1d78 c23d 568c 86be
000003e0: 3218 953e 38f6 9abd 62a0 453d 6221 a7be
000003f0: 9730 763d 4920 ebbe f738 03be 9a7c 3b3e
0.3525569 -0.0774346 0.21498941 0.010936267 0.08605159 0.76117074 1.1696819 -0.29957008
0.23219906 -0.22656149 0.7246234 0.66472936 0.40865448 -0.1113483 -0.5334936 -0.61078346
-0.1471066 0.11492895 -0.2669473 0.19382994 0.95756274 -0.29814228 0.31695345 0.16557881
-0.29032168 0.2324294 -0.09779247 1.0371913 0.072040945 0.696718 0.033841927 0.29459074
0.407252 -0.0883106 -0.034207627 -0.19141038 -0.054437824 0.2985263 -0.10186698 -0.012554003
-0.11299358 -0.17868479 0.0544756 0.14894524 0.06142493 0.20251709 -0.109820254 -0.012471559
0.23187865 0.20937493 -0.13021736 -0.59035414 0.87883866 -0.85578024 1.1214429 2.7092838
0.32456416 0.24780737 -0.36121115 -1.354781 -0.5327717 0.010278861 0.18396564 -0.08210171
-0.16220513 0.06061612 -0.7508973 0.63206434 0.4890328 0.29082328 0.1540086 -0.02531827
-0.33253837 -0.023952015 -0.19877371 -0.36161873 0.49795526 0.49456048 -0.09142402 -0.1986059
0.11661736 -0.47894007 -0.114786446 0.15557049 -0.31122723 0.036233258 0.11937448 -0.34153098
0.20132944 -0.3675902 0.005206111 -0.15564677 0.35840717 -0.6436106 -0.1953194 -0.31431878
-0.37877488 -0.8260736 0.017772945 0.6764179 -0.8057067 0.36820552 -0.8941934 -2.885399
0.22596061 -0.09261366 0.45768005 -0.4686159 0.873502 -0.16691346 -0.23862277 0.5360396
-0.1535475 -0.39763972 0.019507326 -0.21296729 0.07388119 0.58186156 -0.38133353 -0.29269204
0.7247169 -0.31074974 -0.1804468 0.16913792 -0.30444863 -0.32457814 -0.047082692 -0.19967915
-0.09682231 0.74999225 -0.29729503 -0.29590064 0.56240654 -0.06916403 0.10440734 -0.8313747
0.69922096 0.033836897 0.052457124 -0.2055839 -0.28967378 0.38111395 -0.063146636 -0.028421955
-0.29384583 -0.071468696 0.04628377 0.16672818 -0.22478731 -0.44997644 -1.2690628 -0.74903756
0.06203402 0.058882575 -0.05184832 0.71817017 0.5766497 -0.67478293 -0.59625804 -0.052210357
-0.39984378 -0.1481687 0.09061911 -0.13217342 0.24271317 0.1846365 -0.23303245 0.08998799
0.22899352 0.1121777 -0.26290292 0.22152884 -0.56669056 0.1427905 -0.027202219 -0.055806074
0.34293312 0.03361454 -0.23660788 -0.17799804 0.27118734 0.117442034 -0.2452039 0.43932253
0.32887468 -0.16557276 0.10870106 0.3662396 -0.35104993 0.12588255 -0.40879646 -0.11966078
0.1515645 0.034086477 -0.012775918 0.003405252 -0.25654498 0.6291202 0.07703166 0.5083768
0.03431319 -0.0040344517 -0.051772565 -0.9059738 -0.33735847 -0.18982646 -0.3906991 -0.36570618
0.6822347 -0.42314488 -0.13523975 -0.17149642 0.29793978 0.63066924 -0.4499776 0.37481794
0.14372623 -0.26359892 0.24872987 0.56102324 0.24012746 -0.2521347 0.47906193 0.046835594
0.110467084 0.2777818 0.023244875 0.108109005 -0.22997068 -0.10530277 0.18232927 -0.15335378
-0.06512426 0.13928914 -0.06626072 -0.17797926 -0.056161895 -0.10657239 0.22018605 0.03906505
-0.034111783 -0.048877247 -0.048110135 0.19376776 -0.24323948 0.30974755 0.09495566 -0.26278943
0.29120022 -0.07566494 0.048248656 -0.32642657 0.060104933 -0.4592307 -0.12814699 0.1830925

bias f4 [128]
00000000: 179d 80bd 1eea 29bf 2df4 3cbd d22a c8be
00000010: 9ea0 6abe ac18 5cbf ba15 0abf 2f42 64bf
00000020: faff dfbe b43e 11bf ec16 6dbe 9969 cf3c
00000030: 6535 4abe 28a8 92be 54a6 ad3e b74a 7d3e
00000040: 3071 b93c beb0 d5be 9e19 c8be 1198 59be
00000050: 2221 ff3e 8cd1 78bf 5d3d 1ebf 3f04 7b3d
00000060: 6586 c73e fdd6 083e 3b67 433e af87 3bbd
00000070: 31b9 1ebf f6a2 de3e bb06 dbbe cd72 173d
00000080: e6ba f3be e048 663d 268e 60be 7bf4 473b
00000090: 29f8 7c3d a43b 5a3e b21b 0d3f cfb1 36bf
000000a0: 8fd7 243e fd58 46be f6bc 42bc 20e5 22bd
000000b0: 415c a4bd 4678 c9be 2845 23bf ff06 6ebe
000000c0: 3295 b0bc 780d 36be e1b7 85be de79 b03e
000000d0: 4974 1ebe efc3 9b3e 86f7 a0bd 9529 d9be
000000e0: 10cc bdbe 473b 8ebe 4936 c03e f2c9 d0bc
000000f0: 21ca d1be 33ff debe 2a93 a8be c189 e0bd
00000100: 1bd4 593e 51a7 78bd 48c2 5fbe 7acf c73e
00000110: a04c 9bbe f1ca 703b 197d 20be 1a22 8a3e
00000120: 632e 99be 2221 7b3e da63 c8be 8546 5e3e
00000130: 31aa 3cbe 7fc6 a63d 8261 adbe feac 6bbe
00000140: 0bfe 2c3e 807e 0fbf e816 14bf 5c48 e2be
00000150: af0b d5be c63b a9be 1324 70bc 596d 00bf
00000160: ac86 a9be ab3b 1fbf 0b6d 04bf 0731 0ebf
00000170: d661 fdbe b7a8 f9be 0b35 d0be 5bb0 aabe
00000180: 191e a0be 4f47 0e3f 394c 923d b58c 19bf
00000190: a8c3 3e3e 3b02 8a3e 0db8 97bd bcb6 0abf
000001a0: 3ea3 babe bacb 073f d865 3c3f 29a6 14bf
000001b0: 9ebf 1fbf eba2 83bc ecba ffbe 61a4 8a3e
000001c0: a4d2 0cbd 1b53 9bbc 1a77 c13e 618f 343c
000001d0: 44ab 53be 0503 b3be 9b60 e6be 141c af3e
000001e0: 647e 45bd d9c8 eb3e 32f1 e53e a7b4 ddbe
000001f0: a19e 48bf 7e5a 3fbf e32e 12bf be40 fbbe
-0.062799625 -0.6637286 -0.0461313 -0.3909517 -0.22912833 -0.85975146 -0.539394 -0.8916349
-0.43749982 -0.567363 -0.23153275 0.025318908 -0.19746931 -0.28643918 0.3391596 0.24735533
0.02263698 -0.41736406 -0.39082044 -0.21249415 0.49829966 -0.97194743 -0.6181238 0.061283346
0.38969722 0.13363262 0.19082348 -0.045783695 -0.6200133 0.43483704 -0.42778572 0.036974717
-0.4760353 0.056221843 -0.21929225 0.0030510712 0.0617601 0.21311814 0.55120385 -0.71365064
0.16097854 -0.19369884 -0.011885872 -0.039769292 -0.080254085 -0.39349574 -0.637774 -0.23244856
-0.021555517 -0.17778575 -0.2611685 0.34467977 -0.15474047 0.30422923 -0.07859711 -0.42414537
-0.3706975 -0.277796 0.37541416 -0.02548692 -0.40974525 -0.43554077 -0.32924777 -0.109637745
0.21272318 -0.06070644 -0.21851456 0.3902548 -0.30331898 0.0036742056 -0.15672721 0.26979142
-0.29918203 0.24524358 -0.3913868 0.21706589 -0.18424298 0.08143329 -0.33863455 -0.2301521
0.16893785 -0.560524 -0.5784745 -0.4419583 -0.41610476 -0.33053416 -0.014657038 -0.5016685
-0.3311056 -0.6220042 -0.51728886 -0.5554356 -0.49488705 -0.48761532 -0.4066547 -0.33337674
-0.31272963 0.5557756 0.071434446 -0.59980327 0.18629324 0.26954827 -0.07408152 -0.5418508
-0.3645267 0.5304524 0.735929 -0.5806604 -0.6240176 -0.016068896 -0.49947298 0.27078536
-0.03438057 -0.018960526 0.3778618 0.011020512 -0.20670801 -0.3496324 -0.4499558 0.3420111
-0.04821624 0.46051672 0.4491058 -0.4330189 -0.7836705 -0.74747455 -0.57102793 -0.49072832

weight f4 [64, 128]
00000000: c84f fdbc fa48 be3e d326 913d 68e9 593e
00000010: d830 60be 4f73 ccbe 95db dfbd ecea a8be
00000020: a834 a93d 1905 7b3e 7a75 00be f53b cdbd
00000030: 5c00 2fbf eae1 a7bd fc34 adbc 17c7 713e
00000040: b1c3 fa3d 9a7b 28bd 0567 003e 71b2 69be
00000050: 403f 6e3e 7acb 533d ea06 523e c445 ebbd
00000060: ad08 43bc 7a79 4c3d 2d58 e1bd ddb0 9a3e
00000070: 7254 8f3e 1c89 2abe d782 8a3e 5160 d6be
00000080: c117 363e 44d4 aabe 228d 31bc 1cef c23e
00000090: 6511 0fbd db46 a5be 4034 bcbe ad80 9ebd
000000a0: f2ff a73d 5877 2d3b c60a 973d f298 aabd
000000b0: 9872 8bbe 4717 ba3a b894 48bd 9f2b 02be
000000c0: 298c 9b3b 8e6f 1b3c 17d8 15be 6e4d 7fbe
000000d0: 15be 18bf 0530 d93d 4c62 e8bd 445f 23bd
000000e0: 152f 8e3d 2a6f 3b3e fd20 303e 3e91 acbc
000000f0: 38f6 13bf c6e1 bf3c 4ce7 00bf 2aac 77be
00000100: 9d3e c1be 7aa4 50be 06ae 3b3e a34a 99be
00000110: 508c 9e3d 7067 763d 6b85 73bc eed4 c3bb
00000120: 89f6 243d c681 29bc eea7 723c f364 e1bd
00000130: e5a5 ad3e 7ba7 11bf 71a7 0ebe 540e 0f3e
00000140: 9e37 1a3e 6830 e9be 3447 a43e 1808 ecbc
00000150: f166 163e cb90 023e 1e63 ce3d 8a8a 76be
00000160: 76d5 9a3d b565 78be 31f3 11be 5b49 b4bd
00000170: 6b3b 1f3f f681 b43e 59e5 023f f6aa 163f
00000180: 6779 99be dc12 863e ea9c 4bbd 09b5 64bd
00000190: d335 ce3e c1d3 f33d 1888 c7be 16e8 393e
000001a0: a9c0 b0be 3d42 843e a0ee 903e a656 91be
000001b0: a45c 12bf 4b24 04bf a345 813d 042a 793d
000001c0: 41c9 93bd eae6 b2be 6f91 ea3d 5155 6dbe
000001d0: 7bed 8f3d fa8e 313e 7c94 8f3e 5752 01bc
000001e0: a096 00bc a741 5cbd da19 a6be 6c8d f73e
000001f0: 6106 d2bc f700 983e c054 0abd 0528 0abf
00000200: a7b4 f43d 324e bc3c daae cf3e 9263 503e
00000210: f139 963d d69a cbbd c96a 0cbe 929d 30be
00000220: 8824 493e dea7 7bbd 1bcd 2bbe 2c0d a5be
00000230: ae21 973d 9702 c83d 9da3 9e3c f2a4 0bbe
00000240: a7ba e43c 7b59 973e 141f a53d 7cbb 37be
00000250: 0b8c 45be 4494 febd 6523 b33d a1c2 90be
00000260: 4e6f 9abd 925a a3bd 0e69 4fbe a8e8 813e
00000270: a01e 81be dc52 183e 54e8 7dbc e7c3 cf3d
00000280: 8932 a0bd 36cf 1d3e ccdd b03e 04ec a2bd
00000290: b4cc 833e 2c8f 023c b44f a33d d201 043e
000002a0: b311 003e 98d5 ab3b 5fd4 0abe 2ac0 173d
000002b0: 509f 96be ee7e 57be a522 083f f442 9e3d
000002c0: 2b56 b13e 232e ae3d 0013 933d 67ac 9ebe
000002d0: 257f 6d3d 5ac4 353e 45e5 a7bd 8076 3f3e
000002e0: 6248 673e 4c75 b03d c797 403e ca53 903e
000002f0: ca1d 66be b21f a3be d8b0 9fbe b9b6 bbbe
00000300: 91e9 97be 40dd b93e 6fcd b5bd 575c e1be
00000310: c6fb 4abe b4a1 11be d3cb 293e 606f 5fbe
00000320: a65b 1c3e f733 493e b156 ac3e f5a3 b23e
00000330: 3c77 fbbb 3847 96be 6a3a 293e c2c1 013e
00000340: 70fe b7be 819a 8ebe d999 2e3e dab6 6dbe
00000350: 394c 0bbd 6eb3 2b3d eeae 54be e4ae ac3e
00000360: f2ed 52bc 1c36 af3e 8ee4 06bf e574 4fbe
00000370: 1f7c 263e 17e7 b63e 0a44 81be 2190 3b3e
00000380: 7898 39bd 58b8 743d 737d d73d 4cfb 193e
00000390: db3f e2bd 0707 6b3d 0388 9b3e 4006 083d
000003a0: 8670 6bbd 2d0a 07bf 26bf d33e ead8 99bd
000003b0: 6635 5cbe b11c 3bbe 9737 a7bd 07e8 c1bd
000003c0: 27e5 6cbe f95f 5bbe f600 6fbd 586b 863c
000003d0: 2a7d e83e 82a0 bebc 26b8 02bf b49f 3cbe
000003e0: f2ce 833d eee5 7cbd 8d07 613d e0e8 2d3d
000003f0: 864b 8ebe 0c01 333e 0592 033d c4e7 723e
-0.030921832 0.37165052 0.07087483 0.21280444 -0.21893632 -0.39931723 -0.10930554 -0.3299173
0.082619965 0.24513663 -0.12544814 -0.100212015 -0.68359923 -0.081973866 -0.021143429 0.23611103
0.122443564 -0.0411335 0.12539299 -0.22821976 0.23266315 0.051707722 0.2051045 -0.11487916
-0.011903924 0.049920537 -0.11003146 0.3021306 0.27994114 -0.16653866 0.27052948 -0.4187036
0.17782499 -0.3336507 -0.010836871 0.3807305 -0.034928698 -0.3228062 -0.36758614 -0.07739387
0.082031146 0.002646884 0.07375102 -0.08329953 -0.27235866 0.0014197611 -0.048969954 -0.12711953
0.004746933 0.009487046 -0.14633213 -0.24931881 -0.5966504 0.10604862 -0.11346874 -0.039885774
0.06942574 0.18304124 0.17200084 -0.02106535 -0.57797575 0.023423087 -0.5035293 -0.24186769
-0.37743083 -0.20375243 0.18328103 -0.29939756 0.07741606 0.06015724 -0.014863352 -0.005976311
0.040274177 -0.010345882 0.014810545 -0.11005583 0.3391563 -0.5689618 -0.13931061 0.1397031
0.15060279 -0.45544744 0.32085574 -0.028812453 0.14687707 0.12750547 0.10077499 -0.24076286
0.07560246 -0.24257548 -0.14252926 -0.08803054 0.6220004 0.35255402 0.51131207 0.58854616
-0.29975435 0.26186264 -0.04971019 -0.05583671 0.4027544 0.11905623 -0.3897102 0.1815494
-0.34521988 0.25831786 0.28307056 -0.2838642 -0.5717261 -0.5161788 0.0631211 0.060831085
-0.072161205 -0.34941798 0.114535205 -0.23177077 0.07027718 0.17339697 0.28042972 -0.0078931665
-0.007848412 -0.05377355 -0.32441598 0.48350084 -0.025637807 0.29688236 -0.03377223 -0.53967315
0.11948519 0.022986505 0.4056309 0.20350483 0.0733527 -0.09941642 -0.1371261 -0.17247608
0.19642842 -0.061439388 -0.1677746 -0.32236612 0.07379471 0.09766119 0.019365126 -0.1363714
0.027921034 0.29560456 0.08062568 -0.17942613 -0.19291703 -0.12430623 0.08746985 -0.2827349
-0.07540761 -0.07976259 -0.20254919 0.25372815 -0.25218678 0.14875358 -0.015497286 0.10144787
-0.07822139 0.15411076 0.34544218 -0.07955173 0.25742114 0.007968705 0.079741865 0.1289132
0.12506752 0.005243968 -0.13557576 0.037048496 -0.2941842 -0.21044514 0.53177863 0.07727614
0.34636053 0.08504894 0.07181358 -0.30990908 0.057982583 0.17750683 -0.081980266 0.18697548
0.22586206 0.086161226 0.18807898 0.28188926 -0.22472301 -0.3186012 -0.3118961 -0.36662844
-0.29670385 0.36301613 -0.08877074 -0.44015762 -0.19822606 -0.14221841 0.16581659 -0.2181983
0.15269336 0.1964873 0.3365989 0.34890714 -0.007674126 -0.2935121 0.1652619 0.12671569
-0.35936308 -0.27852252 0.17050876 -0.23214284 -0.03400824 0.041919164 -0.20769855 0.3372718
-0.012874113 0.3422097 -0.52692497 -0.20259435 0.16258286 0.35723183 -0.25247222 0.183167
-0.04531142 0.059746116 0.105219744 0.15037268 -0.11047336 0.05737975 0.30377206 0.033209085
-0.057480358 -0.527499 0.41356772 -0.07512076 -0.21504745 -0.18272664 -0.081649 -0.09468084
-0.2313429 -0.2142333 -0.058350526 0.016408607 0.45407993 -0.023269895 -0.5106224 -0.18420297
0.06435956 -0.061742716 0.05493884 0.042458415 -0.27791995 0.17480868 0.032121677 0.23721224

bias f4 [64]
00000000: 2822 1bbf 69d9 cfbe 51b5 92bd 67a7 39bf
00000010: 6d75 2fbf 0a41 9abe 2f0c 2fbe bce5 0cbd
00000020: 70ee 45be 444f 1abf 6fb9 08be e93c db3b
00000030: 37d7 7a3e 9628 94be 9f42 19bf 4a89 083b
00000040: 810e 06be e88a f1bd 56f1 8ebf 94e5 e2be
00000050: e434 43be 1b16 63be 6fc0 9bbe f8ed 02bf
00000060: e235 4cbe bb6b a4be ea3d 87be 8ade acbe
00000070: 791e 7cbe cdd2 873e e283 98be 567e ddbe
00000080: 06ee a1be 0da8 b5bd 74fd d4bf 2032 a8be
00000090: fff2 b0be 785e 3abc 5260 3abe 34bc 7d3b
000000a0: b2cc aabe c6f9 ee3a 7c78 08be ce68 17be
000000b0: e7c0 d7be 71f8 f2bd 3e29 8abf 7e38 12be
000000c0: 9d3f 0d3e ec00 5abe 2078 b2be 5f26 b9be
000000d0: 699e f8bc 4763 c2be 9598 5a3d c41b 93be
000000e0: f7d0 27be 4b9f cfbe 572f efbe 9b24 68be
000000f0: 8c42 2fbe ba85 ccbe 60a9 8d3d 6958 97bd
-0.60598993 -0.40595558 -0.071634896 -0.7252106 -0.6853855 -0.30127746 -0.17094491 -0.03439878
-0.19329238 -0.602772 -0.13351987 0.0066906107 0.2449616 -0.28937215 -0.5986728 0.0020833784
-0.1309147 -0.117940724 -1.11674 -0.4431578 -0.19063145 -0.22176401 -0.30420253 -0.5114436
-0.1994243 -0.32113442 -0.26414424 -0.33763534 -0.24621 0.26528016 -0.2978812 -0.4326045
-0.3162691 -0.08869944 -1.6639848 -0.32850742 -0.3456039 -0.011375062 -0.18200806 0.0038716914
-0.33359295 0.0018232397 -0.13327211 -0.14786074 -0.4213936 -0.11863793 -1.0793836 -0.14279363
0.13793798 -0.21289414 -0.34857273 -0.36162087 -0.030348973 -0.37966368 0.05336817 -0.2873212
-0.16388308 -0.40551218 -0.46715805 -0.22670214 -0.1711523 -0.39945775 0.06917071 -0.0738991

weight f4 [32, 64]
00000000: 4cb4 c7bd f174 c83d 0cee ba3d be2d f5bc
00000010: 533c 3b3e 402a 0a3e 9645 083d 4787 bdbe
00000020: 57b2 67be bd40 a5bd 0230 84be 2541 1b3e
00000030: 353a 06be 501f 39bd d19c 49be 23ee 04be
00000040: b163 35be 7561 913d ade4 d5bc 294d 173e
00000050: 2847 743e 7443 0c3e b4ba 15be 32a8 afbe
00000060: 9de7 95bd 1f89 4cbe a97c 16be f5b3 083e
00000070: 525d 9cbd 05f1 33bb 7b39 c4bd cd82 803e
00000080: 3aa1 16bc 94fb a9bb 21f2 f9bc 791c ce3d
00000090: ec0b 36bd f2da a63c 3f19 58bd 0915 8e3d
000000a0: 39d2 aabd 04c2 cb3d c30a 003e 1b4a 073e
000000b0: 464c 93be 13b8 273e 0f2b 4f3e dd24 c1bd
000000c0: 67f3 8f3e 24c3 87bd a711 233e 0f08 7dbd
000000d0: ff98 f03d 248d 07be 599d 4f3d c9cf a8bc
000000e0: b40c ecbb ca83 b43d cbb9 093e d13c 553e
000000f0: af7b e63b d876 d5bc 7d2d 59be 6563 953d
00000100: bbaa 393c 3a1d 45bd c063 a63d 5389 7abc
00000110: b12e 9c3c b6c9 23bd 57e8 1cbc 0abc 403e
00000120: 7053 233e fd12 9e3c 5eac 073e 69aa a53b
00000130: 2585 b2bd 7afe 713d 3471 173e 1270 07bd
00000140: 7226 073e dd87 ef3d 3c11 a4bc 8e03 f7bc
00000150: 781c 953e 2913 443d fa00 1ebe 1033 03bd
00000160: 3fb2 bc3c 8ba8 ef3d 75a0 73bb 0482 ebbd
00000170: e906 f03d 1bff 2ebd 143e 00be d566 253e
00000180: 1533 313d defb babc 2c9f 663e 78af 573e
00000190: 65a6 9e3c 1125 75bc f8b0 eebc 1b35 36bc
000001a0: abce 6e3d 6f76 b7bd 4213 77bd 6bdf 2b3c
000001b0: 0173 cdbd bafe 84bd 09f6 43be fa41 323c
000001c0: 2f39 d23d 0794 2ebe beee 3fbd be40 9c3d
000001d0: b335 0abb 5523 283e 2545 41bd 1a1e 073d
000001e0: 49ab 26bd cae8 febd 6a86 6a3d a96a e03a
000001f0: 9382 19be 4e3f 6f3d cc2e 433c 96f6 12be
00000200: c87a f93c afe1 063e 13ac 30be 618a b9bd
00000210: b7c7 29bd fa88 dbbe ea20 473e c55e b5bc
00000220: f86b 2dbc 59db 4cbd 606b 763d 42b8 3ebe
00000230: 3d8f 48be 5c0f 793d 95d4 323e b391 0a3e
00000240: a0d2 323e 440e 7b3d 047f d5bd 06aa 0fbe
00000250: 5d89 afbd c549 4e3c 7869 53be d2a0 4cbe
00000260: c39d cfbe 5dae ee3d 5df0 cdbe b5c5 c4bd
00000270: 8a54 5c3c c715 bfbd 43f4 74be a803 9dbd
00000280: 842b b1bd d259 09be 3a10 913e 2e85 a63c
00000290: 7dee 3f3d 18bd 98bd a8e5 7abd 3f3e f5bd
000002a0: ccf7 92be 595d 1ebe 22ae e3bd d499 d73c
000002b0: 8cd9 20bd 82fa debb 0d9e ecbd a97c ae3d
000002c0: 3713 f53c c220 7e3d 69ad 0cbe 4328 183e
000002d0: f64b bbbd 1069 263c 03ba 0f3e 328c 1c3e
000002e0: cd13 72bc 6aac 833c ae24 1b3e fd98 d53d
000002f0: a882 a9bd 5df6 04bd 1592 49be 1ca4 8cbd
00000300: 292c 1f3d 606b f13c f120 333a 4f1f 553d
00000310: 421d da3d 5b59 313d de33 0c3e 4e48 7bbc
00000320: 72ef 12bd c86d c4bd 8517 183e b8ea 30bd
00000330: 4ee8 55bd c57b 14be cc39 c1bd a61e a1bd
00000340: 5de2 86bd 3675 95bd 1407 3c3d 26de 8d3d
00000350: e9f4 f33b 78d0 4ebe f7a3 a5bd aff0 e5bd
00000360: 03cf 9abd eabc 473e ad66 0bbe b52a 23bc
00000370: 2eaf c93d 92a4 35be da41 763e 7c15 9b3d
00000380: 7da2 433d 2c67 32bd e21f 753e 4fc8 18be
00000390: d799 be3a c3de f4bc 44dd e2bc ab53 df3e
000003a0: 0abb 483d 336e 27be 90ea 8fbd cd79 8fbd
000003b0: 3586 de3d 8834 983d a9ef 433d c601 0fbe
000003c0: 1bdb c53d 5d29 4c3d 66f5 c53d 0cb9 783d
000003d0: 9831 9b3c 5357 ec3d b588 303e 0d6e 073d
000003e0: 0a93 cdbc 0227 803d b86e 07be 25e3 373d
000003f0: caf5 843c 7b01 c0bc 66ed c0bd 8563 00bd
-0.09751186 0.0978793 0.09127435 -0.029929038 0.1828473 0.1349268 0.033269487 -0.3701727
-0.22626625 -0.080689885 -0.25817877 0.1516157 -0.13108142 -0.045195878 -0.19688727 -0.12981467
-0.1771381 0.070986666 -0.026110018 0.14775528 0.23855269 0.13697606 -0.14622003 -0.3430801
-0.07319567 -0.19974183 -0.14695992 0.13349898 -0.07634987 -0.0027456891 -0.09581276 0.25099793
-0.009193713 -0.005187461 -0.030510964 0.100640245 -0.044444963 0.020368073 -0.05275845 0.06937606
-0.08340878 0.09949115 0.12504105 0.13211863 -0.2876913 0.16378812 0.2023127 -0.09430859
0.2811539 -0.06629017 0.15924703 -0.061775263 0.11747932 -0.13237435 0.050687168 -0.020606892
-0.007203663 0.08814199 0.1344978 0.20823981 0.007033787 -0.026057646 -0.21208759 0.072943486
0.011332209 -0.048123576 0.081244946 -0.01529153 0.019065233 -0.03998729 -0.0095768785 0.18821731
0.15949798 0.019296164 0.13249347 0.005055715 -0.087168016 0.05908058 0.14789277 -0.033065863
0.1319826 0.11695836 -0.02002775 -0.030153062 0.29123282 0.047869835 -0.1543006 -0.03203112
0.023034213 0.11702069 -0.0037174497 -0.11499408 0.11720068 -0.042723756 -0.12523681 0.16152509
0.043261606 -0.022825178 0.22521657 0.2106303 0.019366452 -0.014962451 -0.02913712 -0.01112106
0.058302563 -0.08958136 -0.0603211 0.010490279 -0.10031701 -0.06493898 -0.19136824 0.010879988
0.10264813 -0.17048655 -0.04685854 0.07629536 -0.0021089136 0.16419728 -0.047185082 0.03298769
-0.040690694 -0.12446745 0.057257093 0.0017121631 -0.14991216 0.05840998 0.011913013 -0.14351878
0.030454054 0.13172029 -0.17253141 -0.09059597 -0.04145023 -0.42877942 0.1944615 -0.022139916
-0.010584824 -0.050013874 0.060160995 -0.18624976 -0.19585891 0.060805663 0.17463906 0.13532142
0.1746316 0.0612929 -0.10424617 -0.14029703 -0.08571122 0.01259083 -0.20645702 -0.19983223
-0.4055005 0.11654351 -0.40222445 -0.09608022 0.01344789 -0.093303256 -0.23921303 -0.07666713
-0.08650878 -0.1341317 0.28332692 0.020327177 0.0468583 -0.07457942 -0.061254174 -0.11974763
-0.2870468 -0.15465297 -0.111171976 0.026318468 -0.03926997 -0.006804765 -0.11553583 0.08519871
0.029916389 0.06204296 -0.13738026 0.14859109 -0.09145348 0.010156885 0.14035802 0.15287855
-0.014775229 0.016073424 0.15150711 0.10429571 -0.08276874 -0.032461513 -0.19684632 -0.06867239
0.038860474 0.029470146 0.0006833217 0.05203181 0.10650112 0.043298107 0.13691661 -0.015337063
-0.035872884 -0.095912516 0.14852722 -0.043192595 -0.052223496 -0.1450034 -0.09434852 -0.07867174
-0.06586144 -0.07297747 0.045905188 0.06927137 0.007444967 -0.20196712 -0.080879144 -0.112275474
-0.075590156 0.19505659 -0.13613386 -0.009958913 0.09847866 -0.1773856 0.24048558 0.07572457
0.047762383 -0.043555424 0.23937944 -0.14920162 0.0014541697 -0.029891377 -0.027693398 0.4361852
0.0490065 -0.16350631 -0.07027161 -0.070056535 0.10865442 0.074318945 0.04783598 -0.1396552
0.09660932 0.049844135 0.09665947 0.06072335 0.018944547 0.11540093 0.1723965 0.033063937
-0.025094528 0.0625744 -0.1322583 0.044894356 0.016230483 -0.023438206 -0.0942028 -0.03134491

bias f4 [32]
00000000: 970d 04be 6734 403e 3dbe 07bf a63c a3be
00000010: a3ae 14bf 14a7 b2be 808d 9dbe 6977 c0be
00000020: 772d 1dbf 7e5e a5bc 71c2 39be 8c9b 8cbe
00000030: e1b2 8b3c 1432 f6be f27b b2be f161 a2be
00000040: 8afe d6be ac56 0dbf bd98 bfbe ba5f bbbe
00000050: 7b5f b63d 7914 c6be f01c f2be 3826 babd
00000060: e45a 07be ad42 b2be 5fc5 d6bf 99a7 fabe
00000070: ac1d 8c3e 29a3 d53e 5235 aebe 64a3 f4be
-0.12895809 0.1876999 -0.53024656 -0.3188221 -0.58078974 -0.34893095 -0.30772018 -0.37591103
-0.613975 -0.020186659 -0.1814058 -0.27462423 0.01705307 -0.48085082 -0.34860188 -0.31715348
-0.41991073 -0.55210376 -0.37421218 -0.3659647 0.0890493 -0.38687494 -0.47287703 -0.09089321
-0.13218266 -0.34816495 -1.6778983 -0.48955992 0.27366388 0.41726044 -0.34025055 -0.47780907

weight f4 [12, 32]
00000000: 8596 f0b8 798b fdba 537d b53b 8e41 003e
00000010: 16a9 5b3d 2d7f ecbc ef90 b0bc f3da 533d
00000020: a45e c03d b003 1ebe 3bc2 04bd 7e18 323d
00000030: 1f38 f7bd 2c28 71bd fbae 493c aa46 adbc
00000040: a295 413d 0675 cfbc f86d 013c ef7d d0b9
00000050: 8b62 553d 216c 19bd 3d6b 86bd e1d3 2e3d
00000060: 678b 0fbd 402f 033d e60e af3d 00d4 8f3c
00000070: 00ee 00bd 2d88 dbbd f918 de3b 6c49 403c
00000080: 0d46 97bc 199a 52be 1a01 0abd 0503 cc3c
00000090: 0b12 f7bc 0cd5 ee3c 49ed 893d 90d4 2b3d
000000a0: 7ea7 963d c082 0e3c 2dff 0c3d be08 5b3b
000000b0: 5349 d93b 74dd cd3d 4b7e 88bb d46a a83c
000000c0: 2e12 ebbc b30c 98bc fbc4 0c3d 1da8 c8bc
000000d0: f9be d3bd 4a08 3c3c 9392 993d 9351 133d
000000e0: c983 e73c 7efc 533c 98d4 fa3d 2123 193d
000000f0: 769a 20bc 9655 5fbc c91d 52bc 7639 263a
00000100: ae4f 533d 7bca 9dbd 2126 0abe 0c4c b0bc
00000110: 216b 30bd c718 52bc 3d43 aa3d 0aa8 4abd
00000120: 5b68 063e 8d00 a13b 5a9b 1fbd ab50 ecbb
00000130: a362 c63c 4d5b 9ebe 545f fcbb f2a0 04be
00000140: 7f2d 8e3d d393 42bd 3247 533d b2f5 303d
00000150: cc41 333e 30a7 0c3a 6ab2 2f3e a985 96bb
00000160: 1dc7 01b9 db2b 8c3c d722 a03d 02a9 b73a
00000170: d0fe e1bc 596e 953d b677 afbd 9f8f ab3c
00000180: 8673 64bb f73d 2f3d 5b23 a3bd d779 c3bd
00000190: 2ff0 ca3c a536 d83d fa30 28bd 9711 28bd
000001a0: 65c7 b3bb b314 b83d 6109 953d a8aa 173e
000001b0: bed6 84ba 204b a33b 11ac 32bd b4bf a4bc
000001c0: 07da 76bd bd64 863c 0b58 d9bc bcba 883d
000001d0: 58ca 623c a15a b93c efa7 233d 8ea1 cebd
000001e0: 94d5 d23c 3639 4fbc 4b17 c0bd 3166 a53c
000001f0: abd5 453d 9ad7 0e3c 5ecc 173d dc64 a23d
00000200: 871d da3a f252 e13c 7412 033e 7426 e13c
00000210: 8c46 11bc 8c16 8f3c 0ee5 90bc bfff cbbd
00000220: 8017 833c 70e4 ad3c f6d1 ad3d 3829 763d
00000230: 7b9f adbc 5b09 9a3a cadf c3bc 9c64 7d3c
00000240: 9d47 63b9 438e dbbc c092 493d 73c6 19be
00000250: 0d8a 243d a521 bf3a 7b28 cd3c 6c15 90bd
00000260: 2198 acbc a370 1d3d 04ec 0a3e f69e 02bd
00000270: 0840 1dbe b06f e93c febc c53c dbb5 6abd
00000280: ae57 8e3d 49b0 ccbb e8d9 273e 26d1 cabb
00000290: 2775 72bc bd1d 5d3e 6f3c 333c dc7c 173e
000002a0: 7e6d 12bd f12a b3bb 4b8e 6bbd b9c2 64bc
000002b0: 0523 2cbd 59ef 863b 1a70 99bd 43a5 c2bd
000002c0: e102 713d dca6 dc3c 7b7c f23a 04f2 64be
000002d0: 20e3 75bc 5387 353c f1b2 c0bd 3d12 b63d
000002e0: 7d42 483c febe 473d 5412 8a3d 4bd7 1c3d
000002f0: 211b fc3c 285f b8bc 62cc aebd 4e0a bfbd
00000300: a484 923d 1362 5839 6c07 eb3b 960b 15be
00000310: ce79 29bc fd7c 06bd ed3d 4b3d 0e23 26bd
00000320: 2545 77bc 71cd 9c3d 70a7 94bc 5f39 733b
00000330: 94bb 4bbd 7f0e ddbc dd69 0cbc 1c32 80bd
00000340: fcc5 a9bd df22 3c3d 8c7a 6cbc a504 0a3d
00000350: c036 413c f281 433c bdca 6a3d 9fcf 133c
00000360: a9d1 36bc 870e f13c 2e9a 67ba 09f3 813c
00000370: 1f0d 2e3d 14fe aebd ef2a 0e3e 9803 a7bd
00000380: 2bff 613c 8e13 a43d c0f1 27bc 2faa 5fbb
00000390: 8cc0 46bd 0c83 fe3a 6e58 f3bd 0b08 dd3b
000003a0: e4e6 233c 71bf b43c 77b2 92bd 4343 29bc
000003b0: ae46 6abc 2085 e4bb 846c 9dbc eed9 0abd
000003c0: 1660 54bd 1a7a 3abb aefb bebb f2f1 31bd
000003d0: 16ed b0bc 1d6c a83c 5b95 133d b36d 133d
000003e0: 741a 2ebd b1dd 8abc 7292 be3c 381e 643c
000003f0: 7067 3ebe 0f42 5e3c 3302 663b 1c65 703d
-0.00011472128 -0.0019343934 0.0055386215 0.12525007 0.05362805 -0.028869236 -0.021553485 0.051722478
0.09393051 -0.15431094 -0.032411795 0.04348039 -0.12071251 -0.0588762 0.012309785 -0.02115186
0.04726184 -0.025324356 0.007899754 -0.0003976668 0.05209593 -0.037456635 -0.06563423 0.042682532
-0.035045054 0.032027483 0.085477635 0.017557144 -0.031476974 -0.10719333 0.0067778793 0.011736255
-0.01846602 -0.20566596 -0.033692457 0.024903784 -0.03015997 0.029154323 0.06734712 0.041950762
0.07356165 0.008698165 0.034423042 0.0033421959 0.0066310554 0.100520045 -0.004165446 0.020558752
-0.028695192 -0.018560743 0.034367543 -0.024494225 -0.103391595 0.011476586 0.0749866 0.035966467
0.028261082 0.012938617 0.1224758 0.037387017 -0.009802451 -0.013631245 -0.012824484 0.000634096
0.05158966 -0.07704636 -0.13491108 -0.021520637 -0.043070916 -0.01282329 0.08313606 -0.04947666
0.13125746 0.0049133957 -0.038966514 -0.007211765 0.024216956 -0.30929032 -0.0077017937 -0.12952021
0.069422714 -0.047504257 0.05158157 0.043203063 0.17505568 0.0005365489 0.17157903 -0.0045935703
-0.00012376574 0.017110756 0.07819145 0.001401216 -0.027587324 0.07296438 -0.08567755 0.020942507
-0.0034858896 0.042783704 -0.07965728 -0.095447235 0.024772732 0.105572976 -0.041062333 -0.0410324
-0.005486416 0.08988323 0.072771795 0.14811194 -0.0010134799 0.004983321 -0.043621127 -0.020110942
-0.06026652 0.016405458 -0.02653124 0.06676242 0.013842188 0.022626223 0.039955076 -0.10089408
0.025736608 -0.0126479175 -0.09379443 0.02019033 0.048299473 0.008718396 0.037060134 0.07929394
0.001664088 0.027505372 0.12800008 0.027484156 -0.008866917 0.017466806 -0.017687347 -0.09960889
0.016002417 0.021227092 0.084873125 0.060097903 -0.02119421 0.0011752056 -0.023910422 0.015465882
-0.00021675085 -0.026801234 0.049212217 -0.15017109 0.040170718 0.001458217 0.025043717 -0.07035336
-0.021068634 0.038437497 0.13566595 -0.03188988 -0.15356457 0.02849564 0.02413797 -0.057302337
0.06950317 -0.0062466008 0.16391718 -0.006189483 -0.014798439 0.21593376 0.010939701 0.14793724
-0.03574895 -0.0054677655 -0.057508748 -0.013962441 -0.042025585 0.004117888 -0.07492085 -0.095041774
0.058840636 0.026935034 0.0018500233 -0.22357947 -0.015007764 0.011079627 -0.0940913 0.088901974
0.012222883 0.04876613 0.06741777 0.038291257 0.030774655 -0.022506312 -0.08535077 -0.09328137
0.071542054 0.00020635901 0.0071725156 -0.14555201 -0.010343982 -0.032834042 0.049619604 -0.040560775
-0.015092169 0.07656372 -0.018146247 0.0037113053 -0.049739435 -0.026984451 -0.008570162 -0.062595576
-0.08289716 0.045931693 -0.014433514 0.033695836 0.011792839 0.011932837 0.057322253 0.009021669
-0.011158385 0.029425872 -0.0008834925 0.015862959 0.042492982 -0.08544555 0.13883565 -0.08154982
0.013793747 0.08011542 -0.010250509 -0.0034128537 -0.04852347 0.0019417717 -0.11882101 0.0067453436
0.010003779 0.022063943 -0.07162946 -0.010330978 -0.014299078 -0.0069738775 -0.019216783 -0.03389924
-0.051849447 -0.0028454126 -0.0058283424 -0.043443628 -0.021597426 0.020559365 0.03603111 0.03599329
-0.042505696 -0.016951414 0.02326319 0.01392322 -0.18594146 0.013565554 0.0035096526 0.058690175

bias f4 [12]
00000000: 38ce 8cbe 8992 98be f15d a0bd b173 8c3e
00000010: e34c 06bf 4ce8 bf3c 0f4d 0bbe e4d8 6abe
00000020: fdd5 77be 04cc 7e3e 9d0f 8cbe b0f3 3fbe
-0.27501082 -0.29799297 -0.07830418 0.27432016 -0.5246107 0.023426197 -0.13603614 -0.229343
-0.24202724 0.24882513 -0.27355662 -0.18745303
